feedforwardnet.pth (torch, 815945 bytes, 4 tensors)

dense_layers.0.weight f4 [256, 784]
00000000: 1559 073d 7a30 9e3c e886 903b 30c9 813b
00000010: e7fc 0bbd e8f1 c63c 8509 edbc 2ea8 993c
00000020: 46fb db3c 400b 44bc c494 8e3c c0bb 5e3a
00000030: ede2 2e3d 6766 433d ba66 a13c 7db5 543a
00000040: f0ed 843c 5af3 f1bc fe80 bdbc b090 093c
00000050: 10da 893b e06a 29bb dcfe 92bb 721f 42bc
00000060: 109d 0c3c 0638 48bc d0ee 74bb b499 483c
00000070: 6a85 fc3c 58d0 04bc 4627 78bc a0ff cf3b
00000080: 5714 8f3c 2328 bbbc ee45 ce3c 0a38 8ebb
00000090: 7e7e 1cbc d1b1 fb3a dd32 243d 4b17 443d
000000a0: 70a0 d93d b0d8 023e 35f2 7f3d 8469 d7bc
000000b0: 71f6 103e 048d a93d 4ea9 56bd 49ec b5bd
000000c0: 9385 443c a9be 6d3c 13d8 273d 94c6 d23c
000000d0: 6993 113d 6872 8fbb 007f cfbc c20d 933c
000000e0: 339a 9abc 47e3 033d a5ae 133c ae6f de3d
000000f0: 2b0c c83d 869b fe3c 2fb3 2e3d 2ac0 5cbb
00000100: 8ba3 3f3d 9fa7 5c3d 5e9c 263d 456d 3d3c
00000110: f53d b93c 920a 8dbc cbb2 93bc 7d37 bcbd
00000120: 6f09 08be c3e3 c3bd bfee 4d3c 6a0b 8abd
00000130: e408 fb3c 8b26 683d 527f 0d3d 8658 383d
00000140: ebd1 3f3d dbfd ebbb f0a0 6b3b 7ba3 0bbd
00000150: e3e1 f0bc c013 953c 9cf2 c2bc 9b70 9a3d
00000160: 6043 8abd 496e a4bc 3231 d8bb 90ab dab9
00000170: fde2 ab3d c3e6 0f3d 42fa b03d bef3 873e
00000180: 7f09 913e 78b8 5c3e a1d7 b93d bb84 3f3c
00000190: b32f 843d 6fab 113e dbd1 7c3d 1868 233d
000001a0: 3531 ebbc c9fc 0abe 03e8 edbd 5b62 e13b
000001b0: a6f4 703d 27af 4bbd fc6e 05be 0afe 6dbc
000001c0: fc8a c53c 97ec 0bbc 99ef e7bc d454 a5bb
000001d0: abfe c7bd 6293 5ebd 5c20 3b3d 1167 5c3d
000001e0: 034f 493e 2c97 c23d 5528 013e 2f89 203e
000001f0: 1649 243e cc1f 313e 774a e23d 92f9 b93d
00000200: 6044 093d 5e3e 203e 9c8f 643e 24ee 033e
00000210: 4b9d 063d 1657 44bd 58f1 6abd 2538 93bd
00000220: 2738 37bd 8de0 1ebd 0df4 20be f0cf 95bc
00000230: 9cdd a3bc b489 853c 6b04 923c 0944 3ebc
00000240: 6cd0 a1bd f24b 983d 4586 e23d 1be6 e039
00000250: d4b1 a33d 4e2b db3c 26cc a33d 3400 463c
00000260: 199f 6d3d 5442 9b3d 6d9a 023e 101c 2f3e
00000270: 0dcf 223e 73b7 b93d c3c2 a53d 799a 4a3d
00000280: dc2e e93c a9c8 3d3d dbf0 bc3c cd64 7e3c
00000290: 4f44 fabc c9f0 62bd 3c5b acbd a4a8 25bc
000002a0: be24 bfbc 82f7 1b3d b863 3cbd 52d8 a93d
000002b0: 4973 5abc 662c 8d3d 210a ed3c 76d9 42bc
000002c0: 0c1a 41bc 2d67 043d b433 0abd b46b 9d3c
000002d0: 27f5 4f3d 4a63 573d a8c6 d83d f296 153e
000002e0: 79d6 0f3e ff73 023e 954e 2d3e 0dc1 323d
000002f0: 64f1 473d 82c4 903d b19c 433d 64ab 2fbd
00000300: 4690 02be 2805 83be 3134 0ebe d996 56bd
00000310: 4eba d23a 3048 72bc 09b4 a13d 26ae 153e
00000320: f5a2 ce3b 601f 2fbd 60cf 9abd a468 efbc
00000330: c77c 95bd 5d8b a0bd 6a1f 06bd c8c1 92bc
00000340: e0b0 ee3c 4996 7a3c cfbf ed3d 870c ee3d
00000350: 0035 d13d edad 233e fa34 063e 0ccd 033e
00000360: bc22 c03d 5435 0f3e 727d a93c 7859 21be
00000370: 35dd 57be fe85 36be d322 debd 1224 e9bc
00000380: 5a37 843c 0174 333d 9b05 373d 6020 893d
00000390: f847 83bd 0305 01be 9798 55be 2e38 96bd
000003a0: 4f79 d13b febd a7bd b5fa 9abc 2df7 f3bd
000003b0: 9e30 bebd 221e f1bd 9668 2e3d fa24 d83d
000003c0: 1619 2d3e aa25 ea3d e754 103e 4fa3 e03d
000003d0: 2bba 073e 09d0 c23d 139f e13c 9edc ebbd
000003e0: 7e86 87be aa5f 86be a28e 01be 572f 58bc
000003f0: 4438 cabc b0b6 813d 9034 86bb 5ff7 183d
0.03304394 0.019310225 0.0044106133 0.003960751 -0.034176733 0.024285272 -0.028935203 0.018756952
0.026853215 -0.011965573 0.017404921 0.0008496605 0.042696882 0.04770508 0.019702304 0.0008114202
0.016226739 -0.029534984 -0.023132797 0.008396313 0.0042069033 -0.0025851056 -0.004485948 -0.011848317
0.0085823685 -0.012220388 -0.0037373789 0.012243677 0.030825336 -0.008106314 -0.015146082 0.0063476115
0.017465753 -0.022846287 0.02517983 -0.0043401765 -0.009551642 0.0019202774 0.04008757 0.047873776
0.10626304 0.12777972 0.062486846 -0.026295431 0.1415651 0.0827885 -0.052407555 -0.088829584
0.011994737 0.014510789 0.04097755 0.025729455 0.035540972 -0.004377652 -0.025329113 0.017950896
-0.018872356 0.03219917 0.0090138065 0.10861145 0.09767946 0.031080019 0.04265135 -0.0033683875
0.046786826 0.053870793 0.040676467 0.011561696 0.022612551 -0.017216954 -0.018029591 -0.09190271
-0.13284849 -0.095649265 0.012569129 -0.06740458 0.030643888 0.056677382 0.03454525 0.045006298
0.046831053 -0.007201893 0.003595408 -0.034091454 -0.029404586 0.018197894 -0.023797326 0.07541009
-0.06751132 -0.02007212 -0.0065976614 -0.00041708024 0.08392904 0.03513218 0.08641483 0.26553148
0.28327557 0.21554744 0.09074331 0.01168936 0.064544104 0.14225553 0.06172357 0.039894193
-0.028709987 -0.13572992 -0.11616518 0.00687818 0.058827065 -0.049727585 -0.13030618 -0.0145259
0.024114124 -0.008540294 -0.028312491 -0.0050455127 -0.09765371 -0.054339774 0.045685157 0.05380923
0.19659047 0.0950149 0.12613042 0.15677331 0.16043505 0.17297286 0.11049359 0.09080805
0.033512473 0.15648791 0.22320408 0.12883812 0.03286485 -0.047934614 -0.05735907 -0.07188443
-0.044731285 -0.038788367 -0.15718098 -0.018287629 -0.020003133 0.016301014 0.017824372 -0.0116129005
-0.079010814 0.074363604 0.11060766 0.0004289605 0.079929024 0.026754048 0.079979226 0.012085009
0.058013055 0.075810105 0.12754221 0.17100549 0.15899296 0.09068193 0.080937885 0.049463723
0.028464727 0.046333943 0.023064068 0.0155269625 -0.03055015 -0.055405412 -0.08415839 -0.010111008
-0.02333295 0.03807784 -0.045993537 0.08293213 -0.01333315 0.06893234 0.028935494 -0.011892667
-0.011785995 0.03232496 -0.033740714 0.019216396 0.050770905 0.052584924 0.10584766 0.14608362
0.14046659 0.12739561 0.16924508 0.04364114 0.048814192 0.07068731 0.047756854 -0.04288806
-0.12750348 -0.2558987 -0.13887097 -0.052389953 0.0016077252 -0.014787719 0.07895667 0.14617214
0.006306047 -0.04275453 -0.07559085 -0.029224701 -0.0729919 -0.078390814 -0.032744803 -0.017914668
0.029137075 0.01529462 0.1160885 0.11623483 0.10215187 0.15984316 0.13106146 0.12871188
0.09381625 0.13985187 0.0206897 -0.15756786 -0.21080478 -0.17824551 -0.10846486 -0.028459582
0.016139675 0.0438118 0.04468308 0.06695628 -0.06410211 -0.12599568 -0.2085899 -0.07334934
0.006392635 -0.08190535 -0.018918375 -0.119123794 -0.09286617 -0.117733255 0.04258021 0.10553928
0.16904101 0.11432965 0.14094888 0.10968649 0.13254611 0.09512336 0.027541673 -0.11516689
-0.26469797 -0.2624486 -0.12652066 -0.01319488 -0.024685033 0.06333673 -0.0040956214 0.037345286

dense_layers.0.bias f4 [256]
00000000: 9a79 50bd c369 a0bc bc47 b63d 342a fc3c
00000010: 24c0 7a3c 47e0 573d 72c4 8b3d 1e0f 0dbc
00000020: cebe 02be 0a94 da3b e5bc 103d a48b 14be
00000030: fe78 433d d77e efbd 89f3 eabc 6708 42bd
00000040: 5a8c 9e3b 46bb 2ebd 7365 d2bc 8ad9 083e
00000050: e669 8ebd 49be b6bb 0fb8 60bd 04a3 e53d
00000060: 35dd 21bd c250 b53d 16c1 9f3c aa2f 8abd
00000070: d221 5cbd 4abc a33c 40e3 273e 4f40 dbbc
00000080: cce1 8abd 95fc 9d3d d244 bb3d 409d a43c
00000090: 0f1f 95bd adf9 bdbd 0eba cfbc 6929 aebd
000000a0: b15e e73c 01d6 1cbd f91b 263d cd58 0d3c
000000b0: 78a5 99bd e164 043e 7aa5 5fbc f36c 0cbc
000000c0: 91a5 b63d efea 26bc 1177 4abc 8ee2 9a3d
000000d0: 7138 dc3d 926f c2bd 5b50 473e ab2f ca3d
000000e0: 5e70 c7bc 16ab 403d 517b 8abd 89d0 023e
000000f0: df34 4d3b 0344 c03b acbe 723d b2c4 653c
00000100: 2ac4 563e 13a1 3fbd 5f3b 32bc 342c f43c
00000110: dcb8 9abc 3323 843d 7207 383d 037d fb3b
00000120: 52fa 05bd 359f 573e 5e30 edbc 78ff 68bd
00000130: d31b f93d e39c ec3d 0d97 723d 7ae1 93bd
00000140: 7b25 6abd dc22 c53d 8b35 e53a 4df3 fe3d
00000150: b67e 2cbc 8797 8d3d 2aab b63d 9ff4 c8bd
00000160: e91c b53d bd78 d63b ceb9 893c f8e6 853d
00000170: 9bc2 e23d fc52 dc3c 8d89 653d 43eb 223b
00000180: 87f8 f13b 4ff0 ff3c 6339 8a3d 8abd 373d
00000190: 56b1 e3bc 6b08 bcbc 8616 ddbd 5782 a1bc
000001a0: 425b 91bc f227 393e 3a95 84bc 7e2c 4dbd
000001b0: d9ba 193d 1a68 f63c a899 d93c 49b2 9b3c
000001c0: 94b4 603d ea68 b9bc c0cb f43c 8dc2 00be
000001d0: 0700 09bd b66b 3f3c aac2 ab3d 16a3 783e
000001e0: c021 c9bd 2350 2d3e 4741 0e3b 9ee8 62bd
000001f0: 2d2e da3c f68d 5dbc eda7 c6bd 244a a63c
00000200: 619d ef3d 990c f0bd 38c3 f43d 8912 0d3c
00000210: da0e 053d 57a7 583d eeaa e23d c67f 3bbd
00000220: f653 413e 429d 67bc 55f4 78bc 5d46 0a3e
00000230: af98 e3bd e726 ec3c 0b7e df3d dd30 d53c
00000240: 4ac3 0bbb 1ea6 83bd e621 b3bd 24f3 b3bb
00000250: ba9e e8bc af62 c6bc 1fa3 ef3b 44a6 a2bd
00000260: 2c7d a83d 1174 5f3d 8ad1 ac3c aca4 1fbd
00000270: d448 533e c1bf 153e c2d9 1ebd bbc9 433d
00000280: d2a1 5d3c dbc7 2b3e 3d58 f33c cd77 113e
00000290: b8ac a0bd a97f 523e 0e5a 273e 521b 8f3d
000002a0: c692 83bc 0767 b2bc 4b9d babd 3196 cf3d
000002b0: 72c3 b73c fdc6 123e 0607 033e a4c3 cebc
000002c0: cba8 b9bd 0afc 8b3c 2617 75bd 0463 d93d
000002d0: 2568 fb3c 8f8c c9bd 9532 e2bc 4421 b03d
000002e0: 0e0e 0f3e 4270 163d 828b 8f3c 1ad9 b23d
000002f0: 9ef8 4f3e 343d a9bd cb18 8abc 8c51 b83b
00000300: 9f0a 9cbd 8b87 893d e80b c1bd 08c0 e5bc
00000310: 8ba8 043e 4518 85bc bb57 283e b6e0 a2bd
00000320: 4c23 d7bc d3c4 b6bd 7d9a 8d3d 41a6 5cbd
00000330: 2739 9abb 2d79 2e3b b912 d4bc a9b3 c63d
00000340: c35e a1bd 347b 5ebc 1523 c53b 8cc2 cfbc
00000350: b964 173e 04a8 57bc e070 2a3d b90a 50bc
00000360: 8a2e 863d dece 113b 1beb 0c3c b2e1 133e
00000370: 2943 243d 300a 36bd 8127 a7bd 2a8e 003e
00000380: befe 2a3d ee08 073e 7c2a c83d b06e 1f3e
00000390: 5e32 1d3e 7a54 e4bd 69c5 813c 556d 08be
000003a0: 339c 72bd 4c5c 883a 7549 99bc af89 003e
000003b0: 64c4 193c a7d3 103d 60ba 39bd dce6 023e
000003c0: d948 013d 1f78 173e 9383 023d 3b55 f4bd
000003d0: 817c a23d 3c8c f83d 10e0 06be 3258 70bd
000003e0: 6f22 213e c677 203c 02ba 07bd 43e3 0f3c
000003f0: 8912 1abd 2872 a13d 456e c43b 5a42 c23d
-0.05089722 -0.019581681 0.08900401 0.030781843 0.015304599 0.052704122 0.06824578 -0.008609561
-0.12768099 0.0066704797 0.035336394 -0.14506394 0.04772281 -0.11694115 -0.02868058 -0.047371294
0.0048385086 -0.042659067 -0.02568314 0.13364235 -0.06953792 -0.005576883 -0.054863032 0.112127334
-0.0395176 0.08853294 0.01950125 -0.067473724 -0.05374319 0.019987244 0.16395283 -0.026764063
-0.067813486 0.07714192 0.09143986 0.020094514 -0.072813146 -0.092761375 -0.025357272 -0.08503992
0.028243395 -0.038290028 0.04055402 0.008627129 -0.07502264 0.12929107 -0.0136502925 -0.008570897
0.08918298 -0.0101878485 -0.012357489 0.07562743 0.10752953 -0.094939366 0.19464247 0.09872373
-0.024345573 0.04703816 -0.06761802 0.12774862 0.0031312031 0.0058674826 0.05926387 0.014023947
0.20973268 -0.04678447 -0.010878413 0.029806234 -0.018886976 0.06452026 0.044928975 0.0076748147
-0.032709427 0.21056826 -0.028953727 -0.05688426 0.1216351 0.11553361 0.059226085 -0.072207406
-0.05716465 0.096257895 0.001748727 0.1244875 -0.010528257 0.06913667 0.08919366 -0.09812283
0.08843405 0.006545155 0.016812231 0.065381944 0.11072274 0.026895039 0.05603938 0.0024859465
0.007384363 0.031242518 0.06749227 0.044858493 -0.027794521 -0.022953233 -0.10795312 -0.019715471
-0.01774371 0.18081644 -0.016184438 -0.05009126 0.037531707 0.030078936 0.026562527 0.019005911
0.054859713 -0.022633035 0.029882312 -0.12574215 -0.03344729 0.011683395 0.083867386 0.24280962
-0.098208904 0.16925101 0.0021706389 -0.055397622 0.026633346 -0.013522616 -0.09699998 0.020299025
0.116999395 -0.11721153 0.119512975 0.008610376 0.032484867 0.052893963 0.110677585 -0.04577615
0.18879685 -0.014136614 -0.015194972 0.13503404 -0.111131065 0.028827144 0.10912713 0.026024276
-0.0021326118 -0.06428169 -0.087467 -0.005491631 -0.028396 -0.024216978 0.0073131467 -0.07941869
0.08227 0.05455405 0.02109601 -0.038975403 0.2063325 0.1462393 -0.03878189 0.047799807
0.0135273505 0.16775458 0.029705161 0.14205857 -0.078454435 0.20556511 0.16342947 0.06987633
-0.016061198 -0.021777643 -0.091120325 0.101360686 0.022432063 0.1433372 0.12795648 -0.025239773
-0.09065398 0.017087955 -0.05983653 0.10614589 0.030689308 -0.098412625 -0.02761201 0.08600095
0.13970205 0.03672815 0.017522577 0.08732815 0.20309684 -0.08263627 -0.016857525 0.0056249555
-0.07619213 0.06715306 -0.09426099 -0.02804567 0.12954919 -0.016246924 0.16439717 -0.079530165
-0.026261948 -0.0892426 0.06914232 -0.05386949 -0.00470652 0.002662252 -0.025887834 0.09702236
-0.078794025 -0.013579179 0.006016145 -0.025361322 0.14784516 -0.013162617 0.041611552 -0.012697869
0.06551845 0.0022248547 0.008600975 0.14441565 0.04010311 -0.04444331 -0.08161832 0.12554231
0.041746847 0.13187 0.09773728 0.15569568 0.15351245 -0.11148925 0.015841203 -0.13322957
-0.059230994 0.0010403483 -0.018711785 0.12552522 0.009385202 0.035358097 -0.045343757 0.12783378
0.031563614 0.14791916 0.03186376 -0.11930319 0.079339035 0.121361226 -0.1317141 -0.05867786
0.15735792 0.009794181 -0.033136375 0.008782211 -0.037615333 0.07883102 0.0059945905 0.09485312

dense_layers.2.weight f4 [10, 256]
00000000: 62c7 ea3d ace9 403e 4ed3 19bf 60b8 a5bc
00000010: 9933 12be bd9c c3bd 2e41 803d 5abc 1fbd
00000020: ac2f d4bd 97de 3b3c eb7f f73d 89c6 9c3c
00000030: f306 fa3d cc12 503d 9745 983d c7a3 54be
00000040: 965e 78be 0cd1 12be a3a1 35be 952f 14be
00000050: c503 ed3c baa2 41be 0a83 63bd 1bb2 bbbc
00000060: 3eae e93d 9797 3f3c 4e31 4abd 5ec5 3e3d
00000070: affc d8be 13fe 253e a3dd 8c3d 26ac 40bd
00000080: 26d4 053e 9138 503d aff8 11be 5d3e 003e
00000090: 49fd 17bc 808f 47bb c77f 8dbd bee2 b93b
000000a0: 42ae 313d fb63 1a3e 4faf 743d ffd6 813d
000000b0: 1bfd cc3c 0780 a9be d028 17bd b024 d1be
000000c0: 3971 f3bd cfd1 203e 353f 24be d5c3 afbe
000000d0: 9b43 9e3d a1fb 053e a23f 2cbf 194d 7c3d
000000e0: a981 30be 911e 8e3d 6aff f03d e9e9 fc3d
000000f0: cc45 1e3e 9ec8 953d 9a1b 32be 7264 073e
00000100: 74d3 d8bd 09dd 3b3e 00aa d9be dd37 e7bd
00000110: 2201 3cbe b59c 30be 4cc9 a73d 9e26 103e
00000120: f58b b7bd 862b 0ebf 6773 bb3d fce0 5d3d
00000130: d148 0ebf 01e4 d3be 3304 923e 34bb f93d
00000140: 9e21 74bd e9ed aebe c048 9c3d 46e4 123e
00000150: 36a2 2d3d 8730 a73d 6a35 60be 9a52 9e3d
00000160: 9fba 54bd 47a3 073e b8f5 85bd 3b6b 13be
00000170: 990f 853d 45d3 d4bd 9aee c4bd becb 4abc
00000180: 62bf 7f3d 2e32 b2be 46ad a8be 3557 4e3d
00000190: d732 e63d f6a5 8bbb 86a0 a3be b8b8 f33d
000001a0: 766a 20be e704 2abe 87be e3be 3305 a63d
000001b0: d33a 143d 5a19 31be 9181 20bd 37f0 023e
000001c0: 2070 2d3e f924 b93d 703b d23d b1c2 923c
000001d0: 8e44 fc3d 6e8b 91bd 7354 42bd dae1 a13d
000001e0: 8a7b c93c ba1c fd3d 6091 c43d 0b84 18bd
000001f0: c2e2 fc3d e2a5 0dbc bdce 223d 9527 2438
00000200: 3f1e 31bd 13cb b33d 6e90 b93d 88cd 50be
00000210: ab05 2bbe 3b9c b2be 3b39 2f3d 6c16 61be
00000220: df71 84bd 6003 03be 2d12 353d 7f2e d03a
00000230: 8e21 043d 8d0f b63c b11e d4be a44e 4abe
00000240: 392b 08be e6a3 1e3e cba9 c93d 9ec5 3a3d
00000250: 732a df3d e5b8 8ebe 48ae 14be 27e8 acbd
00000260: e71a f03d 8822 82be 1de4 63ba 823f 4bbd
00000270: deb1 90be dc99 04be af79 c7bd 92f1 c4bd
00000280: d5ed 8cbd 85f1 91be b3e0 13be 4d0d f7bd
00000290: d950 84bc dba7 7fbe 3d28 40bd c0fe 003e
000002a0: 2575 0f3c e4ab 013d 3365 903d 8df1 c7be
000002b0: 00f7 2f3e 04aa ff3d 5233 e7be edc3 39bd
000002c0: 7fff ac3c 15e9 83be 573e e7bc 2002 29bf
000002d0: 26a6 6abe b70a 143e 5762 8fbd 77da 153d
000002e0: 0a8b 8bbe 3f10 08bd 52b4 6a3e f1c0 d73d
000002f0: a1ed 6bbe 4440 2d3e e9dc 313d c009 bf3d
00000300: 7100 283e c25c 163e 08f3 30be 7eb9 c93c
00000310: 330b 69be 8ef8 58be 1cce 8cbd e207 ed3d
00000320: ac6d 393e c2f1 e23d 6b1d a53d df9c 01be
00000330: 4f3b f03c a7c0 cb3d bf0b e63d c708 7f3d
00000340: 8a3f 823d 4bb8 543d 3746 0ebd aaf8 b43d
00000350: 07c5 ad3d b93b 4dbd 6267 fc3d e43e c4bc
00000360: 4eaf debd 4816 b63d 6303 dc3c 83ae 06bd
00000370: 5892 f2bd f78e 8c3d c6b7 46bd 9e45 08bd
00000380: d2bb b1bd 815c 05be 1797 91bd abec 51be
00000390: 2724 b4bc 3d8e 57bd 993c 69be ca53 d6bb
000003a0: 510a 903e d176 563d 0d40 223e 1918 473c
000003b0: eac9 00bf 80c9 113e 2028 67bd a9d1 50bb
000003c0: 117b 753e dfa0 1c3c b3d1 823d 00a1 ecbd
000003d0: cde9 86be 4631 ca3b 4637 ac3d 9928 8abd
000003e0: 8288 4c3d 9df0 1b3e 904d 2ebe 9e52 35be
000003f0: d80a b8bd 96b6 8b3d e134 483e d81a f53d
0.114638105 0.18839139 -0.6008805 -0.020229518 -0.14277495 -0.0955138 0.06262432 -0.038997985
-0.10360655 0.011466644 0.12084945 0.019137638 0.12208357 0.050799176 0.07435148 -0.20765601
-0.24254832 -0.14337558 -0.17737441 -0.14471276 0.028932462 -0.18909732 -0.05554489 -0.022912076
0.11410187 0.011693857 -0.049363427 0.046574943 -0.42380282 0.16210203 0.06878211 -0.047039174
0.1306921 0.050835196 -0.14255022 0.1252379 -0.0092766965 -0.0030450523 -0.06909137 0.0056727817
0.043379076 0.15077202 0.0597375 0.063398354 0.025023034 -0.3310549 -0.036904156 -0.40848303
-0.1188683 0.15705036 -0.16039737 -0.34329095 0.077277385 0.1308427 -0.67284596 0.061596964
-0.17236961 0.06939424 0.11767466 0.12349302 0.15456313 0.07313655 -0.17393342 0.1322191
-0.105872065 0.18346037 -0.42512512 -0.11289952 -0.18359807 -0.17247279 0.08192691 0.14077231
-0.089622416 -0.5553516 0.091528706 0.05416964 -0.5557986 -0.4138489 0.2851883 0.12193909
-0.059602372 -0.34165886 0.076310635 0.14344892 0.042391025 0.08163553 -0.21895376 0.07730599
-0.05193579 0.13245879 -0.06541008 -0.14396374 0.06497116 -0.10391859 -0.09615822 -0.0123776775
0.062438376 -0.3480391 -0.32944697 0.050376136 0.11240166 -0.0042617274 -0.31958407 0.11900467
-0.15665612 -0.16603433 -0.44481298 0.081064604 0.03618891 -0.17294827 -0.039186064 0.12786947
0.16937304 0.09040255 0.10265243 0.017915102 0.12317763 -0.07106672 -0.04744382 0.07904406
0.02459504 0.12358995 0.095980406 -0.0372353 0.12347938 -0.008645507 0.039747942 3.913751e-05
-0.043241736 0.08778968 0.09060751 -0.20390904 -0.16701381 -0.3488482 0.04277919 -0.2198121
-0.06467032 -0.12794256 0.044206787 0.0015882998 0.032258563 0.022224212 -0.41429666 -0.19756562
-0.13297738 0.1549221 0.098468386 0.04559862 0.108967684 -0.27875438 -0.14519608 -0.08442717
0.11723881 -0.2541697 -0.00086933543 -0.049621113 -0.28260702 -0.12949318 -0.09740006 -0.096163884
-0.068813 -0.28504577 -0.14441185 -0.12063084 -0.016151832 -0.24966376 -0.046913374 0.1259718
0.008755957 0.03165807 0.07050552 -0.39051476 0.17184067 0.124836 -0.45156342 -0.045352865
0.021117924 -0.25763765 -0.028227968 -0.6601887 -0.22914943 0.14457212 -0.07001179 0.036585297
-0.27254516 -0.03321862 0.22920349 0.105348475 -0.23039867 0.16919047 0.043423567 0.093280315
0.16406418 0.14683822 -0.17280209 0.024624582 -0.22758178 -0.21188566 -0.0687525 0.11573769
0.18108243 0.11081268 0.08062252 -0.12657498 0.029325156 0.09948855 0.11232709 0.06226423
0.06359775 0.051933568 -0.03473493 0.088364914 0.084848456 -0.050105784 0.12324406 -0.02395577
-0.108732805 0.088909686 0.026857084 -0.03288127 -0.11844319 0.06863206 -0.048515104 -0.033269517
-0.08678402 -0.13023569 -0.07108896 -0.20500438 -0.021989895 -0.052625883 -0.22777022 -0.00654075
0.2813287 0.052359406 0.15844746 0.012151741 -0.50308096 0.14237022 -0.05643475 -0.0031863248
0.23972727 0.009559839 0.06387653 -0.11554146 -0.2635025 0.0061704246 0.0840898 -0.06746025
0.04993487 0.15228505 -0.17021775 -0.17707297 -0.08986443 0.06821935 0.19551422 0.11968011

dense_layers.2.bias f4 [10]
00000000: c090 f4bd ad92 823d 013f 12bd ac67 bdbc
00000010: 4fa3 d33d b7b3 163e 9c66 59bd a0e8 72bb
00000020: 143d 05bd 7e4a 8dbd
-0.11941671 0.063756324 -0.035704616 -0.023120724 0.10333883 0.14716993 -0.05307637 -0.0037064925
-0.03252895 -0.06898974
